exercise_04/models/linear_net.pt (torch, 2484 bytes, 1 tensors)

classification_head.0.weight f4 [1, 384, 1, 1]
00000000: e62b ab3c 1c66 c93c 0715 82bb e7ed 42bd
00000010: e247 fbbc c0fa c53c 409c 1e3d ef59 2c3b
00000020: 4a0e 103c 11b2 f0bc 4972 0f3b e831 2b3c
00000030: 5bfa 163d 8bc9 fc3b f4f0 c7bc a7af 09bc
00000040: f2fe c7bc 692a 50bb cdd9 86bc a791 133d
00000050: 6dc4 923b 521d 6fbb e5a1 473a f9c0 9d3c
00000060: ce17 bebb 8f61 193d 772f 2f3d 092a 553d
00000070: 8879 a8bb 5a65 91bc a9a4 f2bc baa7 8f3c
00000080: 5672 3dbd 705f a4bc d1f5 b53b 3212 0bb9
00000090: 4070 6a3c 37fe b1bc d66c e7ba a404 1ebc
000000a0: f901 ea3b c1e6 91bd 1312 2b3d bd63 9d3c
000000b0: 16e3 653d d163 273d 8fff 413d b790 b43c
000000c0: dc2d f6bc 8d07 a9ba d220 073c 4dac 27b9
000000d0: 8a1a 023d b6c0 f63c 6e35 fcbc d0a1 10bc
000000e0: d526 083c 09f2 b23c b565 4cbc feb3 173d
000000f0: f056 82bd 4d11 febc 979d 473d ae47 42bc
00000100: 7f6b d3bc 17a9 7cbc 1405 273d 7f7d cbb9
00000110: bc71 c03c f5ea 353d b05b 25bd d743 813c
00000120: e31e 8bbc 7f0a 233d 749b 733b c6b4 d1bc
00000130: 7063 6cbc a507 d5bb 8546 063d 52e2 1abc
00000140: 39a0 963c fa65 113b 759b 54bc c7b4 b0bc
00000150: b336 afbc 7db1 84bc 3167 76bd 2cc5 f73c
00000160: f9cc eebb 66a2 4abc ee16 933c ce3b 823d
00000170: c0e9 02bd 888d d53c 5094 95bc 5601 d2bc
00000180: d17f 583c 937f b3bb 1a69 ae3c 8c03 d93c
00000190: 34c9 0e3d 7270 51bd c5b5 d7bb 2ba5 0cbc
000001a0: a9b6 923c a06e b83c 9743 03bd f1ae ccbc
000001b0: 4be7 473d 05f9 ac3b 51ab 703d 5042 79bd
000001c0: 57b3 8c3c b15f 4bbd 09f2 30bd fb5b f4bc
000001d0: 3d06 d5bc 6a59 8fbc 69ea 79bc 7d7f bb3c
000001e0: d130 013b 9416 2bbc bc54 923b b4b2 513c
000001f0: bdc4 3abb e525 ecbc 3443 30bc 3863 b73b
00000200: e07c bc3c 0adf 3bbc f117 9db9 51c5 2d3c
00000210: a4b8 da3c 5fcd 8d3c 3bb5 a7bc 24dc b63c
00000220: 4f07 da3c 2cc2 2b3c 5fb6 fd3a 3312 4fbd
00000230: f45f 9b3c 237b 823d 3b1e 1e3d 5cbd 453c
00000240: 49fa 6ebd 1750 883d b495 6b3b a96e 4e3d
00000250: 914d 60bd bee2 95bc 8026 e8bc 3e7e 053c
00000260: 7f97 013b 4bdb 7e3d 2e5e 9abc 1c3d 053d
00000270: 869e 773b 0106 163d ad3b 273d 2e0f 5f3c
00000280: 129a 693d 4ce4 f6bb 4f18 50bc 1bc6 ebba
00000290: 225a 6fbd 1f5a 1cbd 2aaa f53a bb3c 0abb
000002a0: 5a86 39bd 9b3e 98bc 273f 7d3d 2030 c53c
000002b0: ec7b 15bd 4cd6 e8bc 88cf 65bd 94f0 e23b
000002c0: 3883 cd3c abdf 03bc 177f c93c dfde 6d3c
000002d0: 4055 903c c217 813d 5e4c 66bd 8b83 ff3c
000002e0: 34de 34bc 5c64 09bd 88df 7d3d 2623 7cbd
000002f0: 06ce f43c 69df 09bd dcde d4b9 23c6 e4b9
00000300: 0cf3 eb3c ac0b e5bb f655 92bc caac 3bbd
00000310: c386 d8bc c6bf 623c 5b7f d9bc 4ae8 123c
00000320: 8e22 9abc aa64 2dbb 34d8 1cbd 6b09 e8bc
00000330: 3174 cabc 9772 67bc b6ba 443d c46a ffbb
00000340: e295 333c e024 fdbc e4fb b3bc c56a e3bc
00000350: ac85 85bd e6f4 b7bc 7aa8 2abd f459 5abd
00000360: 8cc4 be3c 39a7 8d3a 841f ffbc a1fc 713c
00000370: 39ad e7bc 8457 aebc 460b 953c e7a1 7fbb
00000380: b946 003a 5640 f03c af95 c8bc 985a 1cba
00000390: 9743 d13c 8db6 273d c7e3 ffbb 0bf4 b03c
000003a0: 1576 213d 7d6f 7abc ee23 6b3b aa75 41bd
000003b0: 043b 21bd 345f 80bd 7c6b 823c d909 b5bc
000003c0: a945 8cbc 3417 503c 5dcb 5bbd 266e ebbc
000003d0: 5ee8 aabb 50ff 25bd 439f 6ebc b98e 663b
000003e0: 5ff6 923c ef58 3abd 75e2 abbc 9531 293d
000003f0: 0e91 2abd 9c26 0bbd 94c8 493d 89d7 1abb
0.020894956 0.024584822 -0.003969792 -0.047590163 -0.030673925 0.024167418 0.03872323 0.0026298722
0.008792469 -0.029381784 0.0021888188 0.01044891 0.03685985 0.0077144555 -0.024406888 -0.008403695
-0.02441356 -0.003176356 -0.016461277 0.036027577 0.004478982 -0.0036485982 0.0007615372 0.019257056
-0.0058011776 0.037446555 0.042769875 0.05204204 -0.005141441 -0.017748524 -0.029619532 0.017536033
-0.046251617 -0.02006504 0.0055529852 -0.00013262851 0.014308989 -0.021727664 -0.0017656337 -0.009644661
0.0071413484 -0.07124091 0.041765284 0.019212598 0.05612477 0.040866677 0.04736286 0.022041662
-0.030051164 -0.0012895927 0.008247571 -0.00015990548 0.03176359 0.030121189 -0.030787196 -0.008827642
0.0083100395 0.021843927 -0.012475421 0.03703689 -0.06364238 -0.031014109 0.048734274 -0.01185791
-0.025808094 -0.015421174 0.040776327 -0.0003881268 0.023491733 0.044413526 -0.040370643 0.015779419
-0.016982501 0.03980493 0.0037171515 -0.025598895 -0.014428005 -0.0065011554 0.032782096 -0.009453373
0.018386947 0.0022186027 -0.012976517 -0.021570576 -0.021388387 -0.016197914 -0.060157005 0.030245386
-0.0072876182 -0.01236782 0.01795527 0.06359063 -0.031961203 0.026068464 -0.018259197 -0.025635403
0.013214068 -0.0054778545 0.02129035 0.02649095 0.03485985 -0.051132627 -0.006582948 -0.008584301
0.017909365 0.022513688 -0.03204688 -0.024985762 0.048804563 0.005278709 0.05875713 -0.060854256
0.01717536 -0.049651805 -0.043199573 -0.029829016 -0.026003951 -0.01749869 -0.015253642 0.02288794
0.0019712935 -0.010442395 0.0044656675 0.012798954 -0.0028498613 -0.028826663 -0.01075821 0.0055965446
0.023008764 -0.011466751 -0.0002996321 0.010606126 0.026699372 0.017309843 -0.02047216 0.022321768
0.026614813 0.010483306 0.0019356719 -0.050554466 0.018966652 0.06371143 0.03860305 0.012069073
-0.05834416 0.06655901 0.0035947384 0.050398502 -0.054761473 -0.018296596 -0.02833867 0.008147774
0.0019774137 0.062220853 -0.018843736 0.03252898 0.0037783696 0.03662682 0.040828396 0.013614459
0.0570317 -0.0075345393 -0.012701108 -0.0017988117 -0.058435567 -0.038171884 0.001874273 -0.0021093327
-0.045294143 -0.01858454 0.061827805 0.0240708 -0.036495134 -0.028422497 -0.05610612 0.006925652
0.025086984 -0.008048932 0.024596734 0.014518469 0.017618775 0.063033596 -0.056225173 0.031190654
-0.0110393055 -0.033542976 0.061980754 -0.061556958 0.029883396 -0.033660326 -0.00040601834 -0.00043635172
0.028802417 -0.006989917 -0.017863255 -0.04581908 -0.026431447 0.013839668 -0.026549986 0.008966515
-0.018815305 -0.0026457706 -0.038292125 -0.028324803 -0.024713608 -0.014126441 0.048029624 -0.00779471
0.010961028 -0.030901372 -0.021970697 -0.027760873 -0.065196365 -0.022455644 -0.041664578 -0.053308442
0.02328708 0.0010807283 -0.031142958 0.014769704 -0.028280841 -0.021281965 0.018193852 -0.0039006413
0.0004893351 0.029327553 -0.024485437 -0.0005964427 0.025544925 0.04094558 -0.0078091356 0.021600744
0.039419252 -0.01528537 0.003587957 -0.047231354 -0.039362922 -0.062681586 0.015920393 -0.022099422
-0.01712306 0.012700845 -0.05366074 -0.028739046 -0.0052156886 -0.040526688 -0.014564338 0.0035180284
0.017939745 -0.04549497 -0.020982007 0.04130705 -0.04164224 -0.033972368 0.04926355 -0.0023627004
