exercise_04/models/pac_net.pt (torch, 31431 bytes, 9 tensors)

linear.weight f4 [16, 384, 1, 1]
00000000: 0c17 673d 1136 c33c e85d c23b f683 07bc
00000010: c145 54bd 9701 1e3c 1276 293d 4a83 25bd
00000020: 676a a23b 654d 4c3d b230 ae3c 10b1 a43c
00000030: c6d1 bf3c 683d db3c f952 683d 9075 da3c
00000040: 9b17 2f3d fe1d 883c 8701 3cbd 48fc 6a3c
00000050: f21e babc 0181 e83a f7db 6a3c d672 3c3c
00000060: 8542 37bd dd25 ddbb 4bd3 73bd c328 46bd
00000070: 6a46 0c3d b5b2 2ebb 9449 863b 77df 91bc
00000080: cdfb e2ba 9852 d83c 6b90 2c3d 34ce e13c
00000090: f1e0 b33c e722 b5bb f80f 203d a1fb 3bbd
000000a0: c8de e9bc bbe3 10bd 8426 54bb 5fef 8abb
000000b0: 8cf3 81bd a4dd 24bc 7420 213d ed67 c3bc
000000c0: d116 c43c 9e72 a63c ada1 773d 0652 3e3c
000000d0: 54fe 0b3d d72e 163c e34a 5d3d 3f94 6e3c
000000e0: c4b6 21bd 8193 533d 5c8b 1bbd bbf4 f73c
000000f0: c2cc af3c 105c 253d b582 413c c163 513b
00000100: 13b5 703d 95e7 cfbc 421f 6cbc f790 173c
00000110: 9d82 26bd 9c99 aa3c a82e cebc d259 ecbc
00000120: 5a52 1ebd 4a81 71bb f119 843c f784 bdbc
00000130: 2426 fb3c c30e 3ebd 5651 513d ed68 cb3b
00000140: 43c3 033d c83b 88bc b96f 4cbd cc6e a7bc
00000150: 1e6c 533c 2c3c 143c 986f c63b 7734 6dbd
00000160: 63dc aa3c 3608 a63c 393f 4d3d f6ea 94bd
00000170: 3098 15bd 95a2 ea3c 18db eebb 411f 0dbd
00000180: 25c1 3bbc 2797 513c 9939 4cbd f927 d53c
00000190: c331 e03c 9a41 3b3d 8e3b 9b3c 93a1 b2bc
000001a0: d81d f43c de68 8d3c 4872 553d e13e 403d
000001b0: 6ab6 ebbc 5256 d73c b357 01bc 4050 f9bc
000001c0: ffe2 db3c db54 92bc 463b e33c 8955 383d
000001d0: 4fe1 63bc 2059 60bd 9a2b f13c 61be f2bc
000001e0: 538b 373d d92b 213d c398 863c fb65 b43c
000001f0: 5e94 93bc 7fd6 853c 6ea9 6cbd ec95 963c
00000200: 59a6 2a3d ce7c 1bbd d34d adbc e842 1e3d
00000210: 30f1 393d c7b5 a23c bade 653c e10f ac3b
00000220: e0e2 fa3c bdc8 86bc 1e75 f7bc c0b0 1f3d
00000230: 3b2a 023c 596d 30bd 5075 5dbc bcab 1bbd
00000240: 7ff0 0e3d 59cd ff3c 72e8 ae3c 0564 85bd
00000250: d0ee b33c 733f 74bd 43b0 2c3d 8555 883c
00000260: 03e3 debc d340 cfbb b8be 93bc 4269 aebc
00000270: 59f4 03bc 40fa d0bc c419 85bd 44ac 873c
00000280: 18ea efbc 3d75 2ebc e082 be3b 7714 1fbd
00000290: 2902 6a3d 0d12 acbc fe6e b4bc 41c3 243d
000002a0: 58e2 893d 5be1 f83c ba20 39bc f1f8 cf3c
000002b0: 2139 0ebd de28 383d da68 0ebc 7783 fbbc
000002c0: c776 603d 6766 193d 7f19 87bc 1e05 64bd
000002d0: be41 0bbd d3cc 55bd abb4 04bd 98b1 bc3c
000002e0: c723 f33b b1b0 533d d924 20bd cb5e 403c
000002f0: 04cf 153b bb4c 59bd de85 57bd 90d6 6ebc
00000300: 81aa a63c 243c 2cbd 4c76 0bbd 0447 d1bc
00000310: 3288 e7bb 31ac 86bb 19a6 183d 8e84 673d
00000320: 623a 3b3d e9cd f7bc 2baf 383c 2f62 48bd
00000330: 1e18 8d3c 97f0 883c 278e 37bd 7583 33bd
00000340: 843a dd3b e2e1 debc 535c 4ebd ac21 033d
00000350: 5d0e 3d3d 70a0 b13c 0700 51bd 7d5d 2a3d
00000360: 4709 213d 3a9d 983a c15d b9bc 8c7b 87bc
00000370: 3fb5 f93b 0011 90bd 7834 a93c f5d6 193d
00000380: a595 ccbb 8f42 4ebc ba76 793c 7184 b2bc
00000390: 8ee1 043d 5ffb e53c 5c50 3cbd a959 ea3c
000003a0: 57c3 1f3d e664 e63c c0bc 133d c386 183d
000003b0: 75df 713c 52ce 723c 9cd3 883d ad0d 803c
000003c0: 99ad 983c 5031 0fbd 3e91 313c 6c20 253d
000003d0: 8477 573c 1e1d 263d e8d0 6f3c 2b94 c4bb
000003e0: 6f47 da3c b430 623c 079c 913c 4b03 aabc
000003f0: 53de 623d d954 aa3c bffd 3c3c 3fa6 233d
0.056418464 0.023829492 0.0059316047 -0.008271208 -0.051824335 0.009643934 0.041372366 -0.04040841
0.004956532 0.049878497 0.021263454 0.020103961 0.023415457 0.02676268 0.056719754 0.026667386
0.04274712 0.016615864 -0.045899894 0.014342375 -0.022719834 0.0017738641 0.01433467 0.011501988
-0.044741172 -0.0067488984 -0.059527677 -0.048378717 0.03424684 -0.002665681 0.0040981267 -0.017806752
-0.0017317474 0.026406571 0.042129915 0.027564146 0.021957846 -0.0055278423 0.03907773 -0.04589427
-0.028548613 -0.03537343 -0.003237159 -0.004239961 -0.06345281 -0.010062609 0.03933759 -0.023853267
0.023936661 0.020318326 0.06045692 0.011616236 0.034178093 0.009166441 0.054026496 0.014561712
-0.03948094 0.051654343 -0.0379747 0.030268064 0.02145994 0.040371 0.011810948 0.0031950327
0.058766436 -0.025378982 -0.014411749 0.009250871 -0.040651906 0.0208252 -0.025168732 -0.028851423
-0.038652755 -0.0036850744 0.016125651 -0.023134692 0.030657835 -0.046400797 0.05110296 0.0062075765
0.032168638 -0.016630068 -0.049911235 -0.020438574 0.012904195 0.009047549 0.0060557835 -0.057911362
0.020857042 0.020267587 0.050109122 -0.07271378 -0.03652209 0.028641978 -0.0072893016 -0.034453634
-0.011459623 0.012792385 -0.049859617 0.026020037 0.027367478 0.04571686 0.018949296 -0.02180556
0.029799387 0.017261919 0.05211094 0.046934966 -0.028773505 0.026286278 -0.007894444 -0.030433774
0.026841639 -0.017862728 0.027738225 0.045003448 -0.013908698 -0.054772496 0.029439736 -0.029631795
0.044810604 0.039348457 0.016430264 0.022021284 -0.018015083 0.016337631 -0.05777877 0.018382035
0.041662548 -0.03796082 -0.021155274 0.038638026 0.04539603 0.019862069 0.014030153 0.0052509164
0.03062576 -0.016453141 -0.030207213 0.03898692 0.007944639 -0.043073032 -0.013516739 -0.038005576
0.034897324 0.031225847 0.021351073 -0.06513218 0.02196446 -0.059630822 0.042160284 0.016642341
-0.027207857 -0.0063248663 -0.018035278 -0.021290425 -0.0080538625 -0.025509953 -0.06499055 0.016561635
-0.02928643 -0.010648069 0.0058139414 -0.038837876 0.057130966 -0.021004701 -0.022025581 0.04022527
0.06732625 0.030380895 -0.0112993065 0.02538726 -0.03472245 0.04496085 -0.008691991 -0.030702336
0.054800775 0.037451174 -0.01649165 -0.055668943 -0.033998244 -0.05219729 -0.03239886 0.023033902
0.0074200365 0.051682178 -0.03909764 0.01174135 0.0022858987 -0.05305169 -0.0526179 -0.014577523
0.020344974 -0.042049542 -0.034048364 -0.025546558 -0.0070657963 -0.0041098823 0.037267778 0.0565229
0.045709975 -0.030249553 0.011272232 -0.04892176 0.017223414 0.016716285 -0.0448133 -0.04382654
0.0067513604 -0.027207319 -0.050381016 0.032014534 0.046156276 0.021682948 -0.051025417 0.041593064
0.03931549 0.0011643537 -0.022627713 -0.016538404 0.007620483 -0.070344925 0.020654902 0.037558515
-0.006243425 -0.012589111 0.0152260605 -0.021791669 0.03244167 0.028073965 -0.045975074 0.028607206
0.03900465 0.028124284 0.036068678 0.037237894 0.014762749 0.014819698 0.06680986 0.015631521
0.018637465 -0.034959137 0.010837851 0.040314123 0.013151053 0.040555112 0.0146372095 -0.0059991083
0.02664539 0.013805557 0.017774595 -0.020753523 0.055387806 0.020792412 0.011535107 0.039953467

linear.bias f4 [16]
00000000: 8a2d 0c3d 1a58 613d 1b2b 5a3c 9cde 73b9
00000010: 1f05 4cbd fa05 883d 06a1 593d 1b70 383d
00000020: 0ced da3c eff7 3f3d 0c36 953d af5e 83bc
00000030: d0c9 c23c eefe 863d de48 823d 67a0 18bc
0.034223117 0.05501566 0.013315941 -0.00023257214 -0.04980957 0.06641765 0.05313208 0.045028787
0.02672436 0.046867307 0.07285699 -0.01603636 0.023777872 0.06591593 0.063615546 -0.009315587

pac_layers.0.weight f4 [4, 16, 3, 3]
00000000: 40e1 78bd 655a f6bc 57b2 6bbb b968 ebbb
00000010: fc69 a1bd 0617 993c 2529 42bd 1267 8c3d
00000020: b91e 783d 6c81 2ebd 4a66 82bd 9eff 21bd
00000030: adff 27bd 217f 5a3d bd7d cf3c 0654 36bd
00000040: 22f3 303d 23a9 84bd 65e3 f63c 224c 693d
00000050: ecc4 bfbc 29d2 d2bb ec08 173d 98e7 193d
00000060: d870 aa3d 4cc5 213d 35df 44bd e54a 1fbc
00000070: 280b 46bd 2ae5 4abd 90d3 baba dd87 85bd
00000080: 55fd a73c a95b 9ebd 3002 903d 1cb0 efbb
00000090: 0353 70bd bf36 553d 71ff 40bd 92ed 13bd
000000a0: d86c 203a 0d47 153d ba55 f93c 2bdc 813d
000000b0: 1465 b73d 7a92 fa3c c1f3 fabc e727 b03b
000000c0: 00e0 9dbd 7471 973d a456 513d 0a28 83bd
000000d0: 6d1a 64bb 3b75 573d 3835 483c 38cd aa3b
000000e0: 488f 98bd 2013 643d 8399 5a3b f988 6f3c
000000f0: 8613 7ebd 2c20 9cbd a5cd 76bc d571 dd3c
00000100: 3a21 223d 0805 4b3d 4d9a 1fbd e2dc 5fbb
00000110: 8676 23bd e48d 3e3d 8d41 153d 60a5 9abd
00000120: 128b 433d cc7d 853d 6e74 983d 2121 303d
00000130: fb75 053d 1f9f 5bbd 29a6 7abc 9184 07bd
00000140: 3fd2 bb3d c991 40bd 3102 18bd 71f8 b6bd
00000150: d926 a13d 3a7a 9c3b 128b b53c b5c9 05bd
00000160: 9b6f 90bd 5f33 9dbd e415 bdb9 1591 4a3d
00000170: 0615 63bc 9909 8abd 88f0 6a3d bff5 833d
00000180: c3da 0cbd 6ae6 ba3b c81b a7bd 4141 9a3c
00000190: 4c46 c9bc 9a40 d83d ffb0 edbc d798 65bd
000001a0: 548a bf3d 4300 403d 2fc7 af3d c5d2 543d
000001b0: 77df 05bc ccba 65bd eee5 2f3d 5dad 01bd
000001c0: 5494 d3bc 420e 3f3b 3db4 a83d 31c3 4ebd
000001d0: d8be d0ba ba97 233d 68df 7e3d 618f b63d
000001e0: c944 b13d a717 b53d e0cd 85bc e917 1bbd
000001f0: 7af3 843c 6a73 d33d 0ea6 15bd 2acc b03d
00000200: 4729 b53c bd09 ba3d d570 333d be36 4c3d
00000210: be03 4f3d e366 673c ccf9 503d e08c 63bd
00000220: baa4 89bd bbc7 873d 3b80 ce3c 86c8 84bd
00000230: 48b0 b2bd 328e 6ebd 42c0 a33d c84e 8f3d
00000240: dafd 18bc 9075 b4bd 1cec 23bd 41b6 69bd
00000250: f920 123c 03b2 a2bd 418e b6bd 0ace 363c
00000260: 0221 9e3d 06e4 f4bb 2c34 b6bd 90d3 31bd
00000270: a14b b73c 2b0c 77bd 30d6 883d d14c 85bd
00000280: 3b93 943b e112 20bc 3b5b 593c 82f6 b23d
00000290: b1f5 5dbd 8a16 6d3d 91d1 403d 1f6a c03c
000002a0: 5bc6 f7bc 7315 853d 336c 86bd b044 a53c
000002b0: e5a2 333d a303 6abc 5935 aebd 4876 28bd
000002c0: 7199 cf3c c6df 0a3d 59e3 4e3d d7d0 c93c
000002d0: b0c2 a03d a663 b23d dc0c 0e3b 4535 f2bc
000002e0: a557 ebbc f077 a1bb 16a7 0d3d 9c79 8ebd
000002f0: e9e7 173d 3da1 62bc 532e 4a3d 07c9 9cbd
00000300: ac1c 8b3d 5dcd 723d e326 21bc 0a72 0fbd
00000310: 2389 7bbd 9e9a dd3c a49c 823c 171d ecbc
00000320: c064 043b fe6b a5bd 6e9c 2dbd af01 64bd
00000330: f745 66bd f745 093d ec87 36bd cdcf 64bd
00000340: 60bb 593d d046 e939 f158 703c ff99 fcbc
00000350: f6a7 9ebd 64b8 c7bc f952 143d f828 a2bd
00000360: b02e 483d d260 1bbd 854f 933d 79da 83bd
00000370: 52d7 233c 4dc4 a93c f33e 38bd a660 c43b
00000380: 3758 fdbb 58ed b63a 55ee b7bd b62b 4f3d
00000390: a21f 053d 398a 8a3d fb22 5ebd fe47 1f3d
000003a0: c46a 97bd 87df 1d3d 2ce3 263d 87c3 74bd
000003b0: 9ae3 a3bc 0f0b 82bd 6ec2 373c 6cb6 6abd
000003c0: 2729 c33a 22d7 883d 43de 913b 0c4f 003d
000003d0: 6651 d43c 8cdc 97bd 7ce9 a73d 038b 1a3d
000003e0: 7656 0d3d aa00 93bd 2a6f b5bb e5ec 4b3c
000003f0: 594e 32bb fad5 4abd 398a 5abd 84c7 943d
-0.06076169 -0.0300724 -0.0035964453 -0.007184115 -0.07881543 0.018687736 -0.04740252 0.068555966
0.060576174 -0.042603895 -0.06367166 -0.039550416 -0.041015316 0.053343896 0.025328511 -0.044513725
0.04320062 -0.06477573 0.030137727 0.05695737 -0.02340933 -0.0064337444 0.036873743 0.03757438
0.083223045 0.039494798 -0.04806443 -0.009722446 -0.048350483 -0.049534954 -0.0014253724 -0.065200545
0.02050654 -0.077323265 0.07031667 -0.007314695 -0.058672916 0.052054163 -0.047118608 -0.036115237
0.00061197346 0.036444712 0.030436385 0.06340822 0.08954826 0.030587424 -0.030633809 0.0053758505
-0.0770874 0.07394686 0.051108018 -0.06404121 -0.003480579 0.052602034 0.01221972 0.0052124523
-0.07449204 0.0556823 0.003335566 0.014620059 -0.062030338 -0.07623324 -0.015063678 0.027031818
0.03958247 0.049565345 -0.038965512 -0.0034158756 -0.039907955 0.046522036 0.036439467 -0.07551074
0.04774005 0.065181345 0.07444082 0.043000344 0.032583218 -0.053618547 -0.015298405 -0.03308541
0.09170961 -0.04701403 -0.037111465 -0.08934105 0.07868738 0.0047753127 0.02216104 -0.032663066
-0.07052537 -0.07675814 -0.000360652 0.049454767 -0.013859993 -0.06740112 0.057358295 0.06443357
-0.034388315 0.005703737 -0.08159596 0.018829944 -0.024569653 0.10559197 -0.029015062 -0.056053963
0.09352556 0.04687525 0.08582913 0.051958818 -0.008170954 -0.056086347 0.042943887 -0.031659473
-0.025827564 0.0029152785 0.08237503 -0.050479118 -0.0015926016 0.03993962 0.062224776 0.08914066
0.08655698 0.08842402 -0.01633352 -0.0378646 0.01622938 0.10324748 -0.036535315 0.08632691
0.02211441 0.09083889 0.043808777 0.049856894 0.05054068 0.014123651 0.051019475 -0.05555427
-0.06720872 0.066298924 0.02520763 -0.06483559 -0.08725029 -0.058241077 0.07995655 0.06997448
-0.009337867 -0.08811486 -0.040020093 -0.057058576 0.008918994 -0.07944109 -0.089138515 0.011157522
0.077211395 -0.0074734716 -0.0889667 -0.043414652 0.02237493 -0.06031434 0.06681478 -0.06508792
0.004534153 -0.009770126 0.01326638 0.08738424 -0.054189388 0.057882823 0.047074858 0.023488102
-0.03024595 0.06498232 -0.06563606 0.020174354 0.04385652 -0.014283094 -0.08506269 -0.041128427
0.025341721 0.033904813 0.050509784 0.024635715 0.07849634 0.08710413 0.0021675145 -0.029566417
-0.028728316 -0.0049276277 0.034583174 -0.06956789 0.0370864 -0.0138323875 0.049360584 -0.076555304
0.06792578 0.05927788 -0.0098359315 -0.035020865 -0.06141008 0.027051266 0.015943833 -0.028822465
0.0020201653 -0.080772385 -0.04238551 -0.055665668 -0.056219067 0.03351399 -0.04456322 -0.055862237
0.05315721 0.00044493983 0.014669643 -0.03083515 -0.0774688 -0.024379916 0.03621194 -0.079179704
0.04887265 -0.037934132 0.071929015 -0.06438155 0.010000067 0.020723486 -0.044981908 0.0059929667
-0.0077314633 0.0013956232 -0.08981005 0.050578795 0.03250087 0.06764645 -0.05423258 0.038887016
-0.07393411 0.03854325 0.04074399 -0.059756782 -0.02000599 -0.063497655 0.011215789 -0.057302877
0.0014889584 0.06681658 0.0044515445 0.031325385 0.02591772 -0.07415113 0.081988305 0.03773023
0.034506284 -0.07177861 -0.0055369334 0.012446617 -0.0027207343 -0.04952047 -0.053354476 0.07264617

pac_layers.0.bias f4 [4]
00000000: 9436 8f3d 3e2a e63a 36e0 b23c 3a50 5cbd
0.06992832 0.0017560197 0.021835428 -0.053787448

pac_layers.1.weight f4 [4, 4, 3, 3]
00000000: 3e70 3dbc a75c 14bd 6fc3 b9bd 1f01 1bbe
00000010: 171c 9cbd 5838 1dbe cdd2 8cbc 0d37 f93d
00000020: 50f4 2ebc 5452 1ebe f821 863d e09b 593a
00000030: d16c 063e c9d3 ddbc de2c c83c 6f18 c23d
00000040: 9acc 41bd 228d 3fbd 7e5d b8bd 9333 82bd
00000050: a66f 5f3d bc03 97bd 54a9 643d 6e47 f8bd
00000060: d48e 0b3e 887a c13c baca 96bd 9bb8 8bbd
00000070: ea96 353d 6036 b33d 9aaf 9b3d be5c 55bd
00000080: 8da1 34be 1a77 c83d 355d 18be 6dbe f6bd
00000090: 5f4a 3fbd 6c96 083d efd9 dd3d 1e16 9a3d
000000a0: 875b 48bd 6f63 e23d f230 283d bca6 33bd
000000b0: 23a7 823d 9e72 443d f3f9 c93d d571 243e
000000c0: a457 8abd e05d 093e 43c8 13bd 712f 03be
000000d0: 7898 223e 8dac 77bd ca01 ccbc 39f3 123c
000000e0: 120e 08bd d888 b63d 2f0b c1bc b433 38be
000000f0: 6b94 6abc 1268 fb3d fafe b8bd 83ef b2bd
00000100: c8de 8fbd ec29 e53d 3ff1 cfbd d3f8 ad3c
00000110: 0275 663d 801b 63bd 8c3f 3bbe 462e 01be
00000120: 15e2 efba 0098 00be 80d4 123e 0533 0f3e
00000130: dec0 6b3d fa93 413d cf63 74bd 8751 a7bd
00000140: 929b 1dbe 2a85 efba 83aa 2d3e 0af4 efbc
00000150: ef99 653d ca7d 11be cb54 f8bd a64b e1bc
00000160: de84 1abd 1179 cc3d 5db1 31be 90a9 75be
00000170: b110 73be aeb3 2cbd 6def a23c ba52 183d
00000180: 830e bbbd 7446 fabc 6732 0ebe 81ed d3bd
00000190: 1641 50be ac69 56be e04d 0fbd ba3d 983d
000001a0: e6db aa3d 7c87 59bd 66b2 10be 0449 70bd
000001b0: 722f 6d3d b48b 913d 8ab4 8fbd 1514 8f3d
000001c0: 5b18 6c3d 2700 d63c d1ec de3d a81e 3c3e
000001d0: 088a 043e 91ba 04be 6504 d83d c5fb 8f3d
000001e0: b5cf 3fbd 1419 133e dc12 56bd 7b03 12bd
000001f0: 30cc 253d 9acb 9a3d 1608 55be 2b99 4dbe
00000200: c0ff 123d 90e7 08be 79de 71bd 7e94 563b
00000210: d55b 50be 2c9b 41be cf70 afbd 660f 4cbe
00000220: 4765 94bd 8e43 0c3d bb14 15be 6e9f e23c
00000230: a69f f13c 1bec 2c3d f05d 03be 2632 febd
-0.011562405 -0.036221173 -0.09070479 -0.15137146 -0.07622545 -0.15353525 -0.017190361 0.12168703
-0.010678366 -0.15461093 0.06549448 0.000830112 0.13127448 -0.027078526 0.024435457 0.094773166
-0.047314264 -0.046765454 -0.09002207 -0.06357493 0.054549836 -0.07373759 0.055825546 -0.12122999
0.13628703 0.023617998 -0.07362886 -0.0682232 0.044333376 0.087506056 0.07601853 -0.0520904
-0.17639752 0.09788342 -0.14879306 -0.120480396 -0.046701785 0.03334658 0.10832583 0.0752375
-0.048915412 0.11054122 0.041062303 -0.043860182 0.06379535 0.04796087 0.09862127 0.16059048
-0.067549974 0.13414717 -0.036079656 -0.12811066 0.15878475 -0.06046729 -0.024903197 0.008969122
-0.033216543 0.089128196 -0.023564903 -0.17988473 -0.014317612 0.12275709 -0.09033008 -0.087370895
-0.07024914 0.111896366 -0.10153436 0.021236813 0.05626393 -0.055446148 -0.1828596 -0.12615308
-0.0018301631 -0.12557983 0.14338875 0.13984306 0.05755698 0.047260262 -0.059665497 -0.08169847
-0.15391377 -0.0018273939 0.16959576 -0.029291172 0.056055006 -0.14208141 -0.12125548 -0.027501892
-0.03772437 0.09984029 -0.17352815 -0.23990464 -0.23736836 -0.042163543 0.019889558 0.03718827
-0.09133627 -0.030551173 -0.13886414 -0.10348035 -0.20337328 -0.20938748 -0.034986377 0.074336484
0.083427235 -0.053107724 -0.14130554 -0.058663383 0.057906576 0.071067244 -0.07016857 0.06986252
0.057640415 0.02612312 0.10885013 0.1837107 0.1294328 -0.12961794 0.10547713 0.07030443
-0.046828944 0.14365035 -0.05226408 -0.03564785 0.04047793 0.07558365 -0.20803866 -0.2007796
0.035888433 -0.13369584 -0.059050057 0.0032742317 -0.20347531 -0.1890685 -0.085664384 -0.19927749
-0.072458796 0.034244113 -0.1455869 0.027663913 0.029495072 0.042217355 -0.12828803 -0.12411909

pac_layers.1.bias f4 [4]
00000000: d09f 053e 9903 133e 252d afbd 4f9d dfbd
0.13049245 0.14356841 -0.085535325 -0.10918676

pac_layers.2.weight f4 [4, 4, 3, 3]
00000000: ace5 393d e8ae 2ebd f499 513c 1929 343e
00000010: 798e 82bd a62e b93d 5838 afbd 8038 a73d
00000020: 837b d4bd 72b3 ec3d a82c fcbd 9dce 03be
00000030: 584a 0ebe 4546 793d 4d3c 2a3d 4e71 f53b
00000040: bd5b e53d 840e 9f3d eca8 cbbc 1cc0 89bb
00000050: 8e5f 393d 405a 613e fe9b 553d 8c6a a2bc
00000060: 026d 37bd 892b 7f3e e188 03bc 2e2e bbbd
00000070: 479b 563e 44ce d83d 2555 25bd 8382 193d
00000080: 2df2 f33d 837a 1f3e c472 f6bd f85f 88bb
00000090: 8eb6 113e ab03 f8bd 8e4f 763d cb51 613d
000000a0: 7a50 8bbc ea60 893b c9bc e1bd d245 ce3d
000000b0: 4f61 a7bd 4185 0e3e 4375 e9bb 957c 9fbd
000000c0: a9d3 313e 0e3b 19be 49da f0bd 1b53 efbc
000000d0: 2b83 ab3d d3ff 203e d394 143e 1965 483e
000000e0: c495 373e e567 63bd 6510 e73c e25b 7a3b
000000f0: ba0e 8f3d 2d36 923d 237e 0dbd 7a5f b43d
00000100: 734d 9cbd 8560 223d 5078 7e3d b1f9 253e
00000110: 6f5f 4a3e 00fe c33d 775a 1a3e 3089 093e
00000120: b7f2 5bbd 5e0c 833d 5365 593e 61a0 cc3d
00000130: 5dd7 1c3d 2b45 0cbd e111 3e3c b099 6e3d
00000140: 6b8a d03d ae2c 0d3e 8e5d dabc 6f10 cf3d
00000150: 26d8 1d3d 7efe 073d 61ba dd3d cb7a d5bd
00000160: 3cbe d8bd c285 b9bd bef7 2ebc 0669 08bd
00000170: 81ca e53d ca2d 6a3e ff8e 113e bb13 703d
00000180: 9f61 233e c23d 7bbc 75cd e03d 8744 3cbd
00000190: 6710 413d 402e 97bc e210 4f3d e903 17bc
000001a0: 1cac ea3c 9e42 273e 1b40 213d f195 d43d
000001b0: e860 48bd fcbc b73d 4f39 97bc 7dfe 1dbe
000001c0: fd0e 813d bb70 123e a2c0 bc3d 6b98 a9bd
000001d0: 61e0 703c f395 88bd 99c0 7a3d db39 b33d
000001e0: 00c2 6f3d 433c f33d bf72 2a3e 1cff f0bd
000001f0: 7015 29bd 0956 edbd b999 353e 00c3 a3bd
00000200: 97aa 3e3e ea94 31bd 78b5 be3c 1c07 053e
00000210: f010 013e 5930 93bd 1578 8c3d b6f2 93bd
00000220: 9d08 223e f100 1c3e 02cc 373e 7a5f de3c
00000230: afa7 bfbd 7cc3 20bd 5e6d 183e 4b0b a93d
0.045385048 -0.042647272 0.012793053 0.17593803 -0.06374831 0.090421006 -0.085556686 0.081650734
-0.103751205 0.11557664 -0.12313205 -0.12871785 -0.13895547 0.06085803 0.041561414 0.0074903136
0.11199138 0.077664405 -0.024860822 -0.0042038094 0.045257144 0.22007084 0.05215072 -0.019826196
-0.044781692 0.24918951 -0.00802824 -0.091396675 0.20957671 0.10586217 -0.040364403 0.03747798
0.11911426 0.15574078 -0.120336086 -0.004161831 0.14229795 -0.121100746 0.060134463 0.055009644
-0.017006148 0.0041924613 -0.11022336 0.10071911 -0.08172857 0.1391802 -0.0071245744 -0.07787434
0.17365898 -0.14963934 -0.117603846 -0.029214432 0.08374628 0.15722589 0.14509897 0.19569816
0.17928225 -0.055519003 0.02820606 0.003820174 0.06985231 0.071392395 -0.03454412 0.08807273
-0.0763196 0.03964283 0.062126458 0.16208531 0.19762968 0.09569931 0.15073572 0.13431239
-0.053698268 0.06398843 0.21230058 0.09991527 0.038291324 -0.03424565 0.011600942 0.058252037
0.10182651 0.13786575 -0.026655938 0.10110556 0.038536213 0.033201687 0.108265646 -0.104238115
-0.10583159 -0.090587154 -0.0106791835 -0.033303283 0.11220265 0.2286903 0.14214705 0.058612566
0.15955208 -0.015334548 0.10976688 -0.04596379 0.047134783 -0.01845467 0.05055321 -0.009217241
0.028646521 0.16334006 0.039367776 0.103801616 -0.048920542 0.08971593 -0.018459944 -0.15429111
0.06301687 0.14300816 0.09216429 -0.082810245 0.014701934 -0.066692255 0.06121883 0.087512694
0.058534622 0.118767284 0.16645335 -0.11767408 -0.04128021 -0.115886755 0.17734422 -0.07996178
0.18619762 -0.043354906 0.02327989 0.12990993 0.12604117 -0.07186956 0.06858841 -0.07224028
0.15823598 0.15234734 0.17948917 0.027145136 -0.09358155 -0.03924893 0.1488547 0.08254107

pac_layers.2.bias f4 [4]
00000000: 4f7d 3dbd 46cd 43bb 3617 81be cd0f e83d
-0.04626208 -0.0029876991 -0.2521302 0.11331139

pac_layers.3.weight f4 [1, 4, 3, 3]
00000000: d25b 193c c578 88bb 4d2f 493e eaa1 ce3d
00000010: b666 303e 7e94 d43d 1bdb 1e3e 22d3 fa3d
00000020: 4d0f febc 0cfb 2c3e b98e c93d 8010 0d3d
00000030: c412 403e aac9 ddbd 55bb a2bd 15c6 123e
00000040: df2d 143e 45c0 83bd 3666 2f3d d1ff 07bc
00000050: 6527 073e 6660 3d3c b4e8 713e 17ae 7c3d
00000060: 55bf 753e 62b5 b03d 2af2 313e 6bd0 033b
00000070: d2aa 6abd 9400 f2bd d5ea a9bd 883a 083e
00000080: 598b 903d b57d d43d f057 063e d92d 523d
0.009360271 -0.0041647875 0.1964695 0.100894764 0.17226681 0.10379885 0.1551327 0.12247302
-0.031013155 0.16892642 0.09841675 0.034439564 0.18757159 -0.1082948 -0.07945887 0.14333375
0.14470623 -0.06433157 0.042822085 -0.0083007375 0.13198622 0.011558628 0.23623925 0.061689463
0.23998769 0.08628346 0.17377535 0.002011324 -0.057291813 -0.118165165 -0.08296744 0.13303578
0.070578285 0.10375539 0.13119483 0.051313255
